…
을 통과한 데이터의 크기. ``(ngf) x 32 x 32``nn.ConvTranspose2d(ngf,nc,4,2,1,bias=False),nn.Tanh()# 위의 계층을 통과한 데이터의 크기. ``(nc) x 64 x 64``)defforward(self,input):returnself.main(input)좋습니다. 이제 우리는 생성자의 인스턴스를 만들고weights_init함수를 적용시킬 수 있습니다. 모델의 인스턴스를 출력해서 생성자가
어떻게 구성되어있는지 확인해봅시다.# 생성자를 만듭니다netG=Generator(ngpu).to(device)# 필요한 경우 multi-GPU를 설정 해주세요if(device.type=='cuda')and(ngpu>1):netG=nn.DataParallel(netG,list(range(ngpu)))# 모든 가중치의 평균을 0( ``mean=0`` ), 분산을 0.02( ``stdev=0.02`` )로 초기화하기 위해# ``weight_init`` 함수를 적용시킵니다netG.apply(weights_init)# 모델의 구조를 출력합니다print(netG)Generator(
  (main): Sequential(
    (0): ConvTranspose2d(100, 512, kernel_size=(4, 4), stride=(1, 1), bias=False)
    (1): BatchNorm2d(512, eps=1e-05, momentum=0.1, affine=True, track_running_stats=True)
    (2): ReLU(inplace=True)
    (3): ConvTranspose2d(512, 256, kernel_size=(4, 4), stride=(2, 2), padding=(1, 1), bias=False)
    (4): BatchNorm2d(256, eps=1e-05, momentum=0.1, affine=True, track_running_stats=True)
    (5): ReLU(inplace=True)
    (6): ConvTranspose2d(256, 128, kernel_size=(4, 4), stride=(2, 2), padding=(1, 1), bias=False)
    (7): BatchNorm2d(128, eps=1e-05, momentum=0.1, affine=True, track_running_stats=True)
    (8): ReLU(inplace=True)
    (9): ConvTranspose2d(128, 64, kernel_size=(4, 4), stride=(2, 2), padding=(1, 1), bias=False)
    (10): BatchNorm2d(64, eps=1e-05, momentum=0.1, affine=True, track_running_stats=True)
    (11): ReLU(inplace=True)
    (12): ConvTranspose2d(64, 3, kernel_size=(4, 4), stride=(2, 2), padding=(1, 1), bias=False)
    (13): Tanh()
  )
)구분자¶앞서 언급했듯, 구분자\(D\)는 입력 이미지가 진짜 이미지인지 (혹은 반대로 가짜 이미지인지)
판별하는 전통적인 이진 분류 신경망으로 볼 수 있습니다. 이때\(D\)는
3x64x64 이미지를 입력받아, Conv2d, BatchNorm2d, 그리고 LeakyReLU 계층을 통과시켜
데이터를 가공시키고, 마지막 출력에서 Sigmoid 함수를 이용하여
0~1 사이의 확률값으로 조정합니다. 이 아키텍쳐는 필요한 경우 더 다양한 레이어를 쌓을 수 있지만,
배치 정규화와 LeakyReLU, 특히 보폭이 있는 (strided) 합성곱 계층을
사용하는 것에는 이유가 있습니다.
…
chNorm2d(ndf*8),nn.LeakyReLU(0.2,inplace=True),# 위의 계층을 통과한 데이터의 크기. ``(ndf*8) x 4 x 4``nn.Conv2d(ndf*8,1,4,1,0,bias=False),nn.Sigmoid())defforward(self,input):returnself.main(input)이제 우리는 생성자에 한 것처럼 구분자의 인스턴스를 만들고,weights_init함수를 적용시킨 다음, 모델의 구조를 출력해볼 수 있습니다.# 구분자를 만듭니다netD=Discriminator(ngpu).to(device)# 필요한 경우 multi-GPU를 설정 해주세요if(device.type=='cuda')and(ngpu>1):netD=nn.DataParallel(netD,list(range(ngpu)))# 모든 가중치의 평균을 0( ``mean=0`` ), 분산을 0.02( ``stdev=0.02`` )로 초기화하기 위해# ``weight_init`` 함수를 적용시킵니다netD.apply(weights_init)# 모델의 구조를 출력합니다print(netD)Discriminator(
  (main): Sequential(
    (0): Conv2d(3, 64, kernel_size=(4, 4), stride=(2, 2), padding=(1, 1), bias=False)
    (1): LeakyReLU(negative_slope=0.2, inplace=True)
    (2): Conv2d(64, 128, kernel_size=(4, 4), stride=(2, 2), padding=(1, 1), bias=False)
    (3): BatchNorm2d(128, eps=1e-05, momentum=0.1, affine=True, track_running_stats=True)
    (4): LeakyReLU(negative_slope=0.2, inplace=True)
    (5): Conv2d(128, 256, kernel_size=(4, 4), stride=(2, 2), padding=(1, 1), bias=False)
    (6): BatchNorm2d(256, eps=1e-05, momentum=0.1, affine=True, track_running_stats=True)
    (7): LeakyReLU(negative_slope=0.2, inplace=True)
    (8): Conv2d(256, 512, kernel_size=(4, 4), stride=(2, 2), padding=(1, 1), bias=False)
    (9): BatchNorm2d(512, eps=1e-05, momentum=0.1, affine=True, track_running_stats=True)
    (10): LeakyReLU(negative_slope=0.2, inplace=True)
    (11): Conv2d(512, 1, kernel_size=(4, 4), stride=(1, 1), bias=False)
    (12): Sigmoid()
  )
)손실함수와 옵티마이저¶\(D\)와\(G\)의 설정을 끝냈으니, 이제 손실함수와 옵티마이저를 정하여
학습을 구체화시킬 시간입니다. 손실함수로는 Binary Cross Entropy loss
(BCELoss)
를 사용할겁니다. 해당함수는 아래의 식으로 파이토치에 구현되어 있습니다:\[\ell(x, y) = L = \{l_1,\dots,l_N\}^\top, \quad l_n = - \left[ y_n \cdot \log x_n + (1 - y_n) \cdot \log (1 - x_n) \right]

\]이때, 위의 함수가 로그함수 요소를 정의한 방식을 주의깊게 봐주세요 (예.\(log(D(x))\)와\(log(1-D(G(z)))\)). 우린\(y\)을 조정을 조정하여, BCE 함수에서
…
