…
 87%|########7 | 461M/528M [00:04<00:00, 117MB/s]
 90%|########9 | 473M/528M [00:04<00:00, 116MB/s]
 92%|#########1| 484M/528M [00:04<00:00, 115MB/s]
 94%|#########3| 495M/528M [00:04<00:00, 115MB/s]
 96%|#########5| 506M/528M [00:04<00:00, 115MB/s]
 98%|#########7| 517M/528M [00:04<00:00, 111MB/s]
100%|##########| 528M/528M [00:04<00:00, 114MB/s]모델 가중치를 불러오기 위해서는, 먼저 동일한 모델의 인스턴스(instance)를 생성한 다음에load_state_dict()메소드를 사용하여
매개변수들을 불러옵니다.model=models.vgg16()# 여기서는 ``weights`` 를 지정하지 않았으므로, 학습되지 않은 모델을 생성합니다.model.load_state_dict(torch.load('model_weights.pth'))model.eval()VGG(
  (features): Sequential(
    (0): Conv2d(3, 64, kernel_size=(3, 3), stride=(1, 1), padding=(1, 1))
    (1): ReLU(inplace=True)
    (2): Conv2d(64, 64, kernel_size=(3, 3), stride=(1, 1), padding=(1, 1))
    (3): ReLU(inplace=True)
    (4): MaxPool2d(kernel_size=2, stride=2, padding=0, dilation=1, ceil_mode=False)
    (5): Conv2d(64, 128, kernel_size=(3, 3), stride=(1, 1), padding=(1, 1))
    (6): ReLU(inplace=True)
    (7): Conv2d(128, 128, kernel_size=(3, 3), stride=(1, 1), padding=(1, 1))
    (8): ReLU(inplace=True)
    (9): MaxPool2d(kernel_size=2, stride=2, padding=0, dilation=1, ceil_mode=False)
    (10): Conv2d(128, 256, kernel_size=(3, 3), stride=(1, 1), padding=(1, 1))
    (11): ReLU(inplace=True)
    (12): Conv2d(256, 256, kernel_size=(3, 3), stride=(1, 1), padding=(1, 1))
    (13): ReLU(inplace=True)
    (14): Conv2d(256, 256, kernel_size=(3, 3), stride=(1, 1), padding=(1, 1))
    (15): ReLU(inplace=True)
    (16): MaxPool2d(kernel_size=2, stride=2, padding=0, dilation=1, ceil_mode=False)
    (17): Conv2d(256, 512, kernel_size=(3, 3), stride=(1, 1), padding=(1, 1))
    (18): ReLU(inplace=True)
    (19): Conv2d(512, 512, kernel_size=(3, 3), stride=(1, 1), padding=(1, 1))
    (20): ReLU(inplace=True)
    (21): Conv2d(512, 512, kernel_size=(3, 3), stride=(1, 1), padding=(1, 1))
    (22): ReLU(inplace=True)
    (23): MaxPool2d(kernel_size=2, stride=2, padding=0, dilation=1, ceil_mode=False)
    (24): Conv2d(512, 512, kernel_size=(3, 3), stride=(1, 1), padding=(1, 1))
    (25): ReLU(inplace=True)
    (26): Conv2d(512, 512, kernel_size=(3, 3), stride=(1, 1), padding=(1, 1))
    (27): ReLU(inplace=True)
    (28): Conv2d(512, 512, kernel_size=(3, 3), stride=(1, 1), padding=(1, 1))
    (29): ReLU(inplace=True)
    (30): MaxPool2d(kernel_size=2, stride=2, padding=0, dilation=1, ceil_mode=False)
  )
  (avgpool): AdaptiveAvgPool2d(output_size=(7, 7))
  (classifier): Sequential(
    (0): Linear(in_features=25088, out_features=4096, bias=True)
    (1): ReLU(inplace=True)
    (2): Dropout(p=0.5, inplace=False)
    (3): Linear(in_features=4096, out_features=4096, bias=True)
    (4): ReLU(inplace=True)
    (5): Dropout(p=0.5, inplace=False)
    (6): Linear(in_features=4096, out_features=1000, bias=True)
  )
)참고추론(inference)을 하기 전에model.eval()메소드를 호출하여 드롭아웃(dropout)과 배치 정규화(batch normalization)를 평가 모드(evaluation mode)로 설정해야 합니다. 그렇지 않으면 일관성 없는 추론 결과가 생성됩니다.모델의 형태를 포함하여 저장하고 불러오기¶모델의 가중치를 불러올 때, 신경망의 구조를 정의하기 위해 모델 클래스를 먼저 생성(instantiate)해야 했습니다.
이 클래스의 구조를 모델과 함께 저장하고 싶으면, (model.state_dict()가 아닌)model을 저장 함수에
전달합니다:torch.save(model,'model.pth')다음과 같
…
